…
4027
4028
4029
4030
4031
4032
4033
4034
4035
4036
4037
4038
4039
4040
4041
4042
4043
4044
4045
4046
4047
4048
4049
4050
4051
4052
4053
4054
4055
4056
4057
4058
4059
4060
4061
4062
4063
4064
4065
4066
4067
4068
4069
4070
4071
4072
4073
4074
4075
4076
4077
4078
4079
4080
4081
4082
4083
4084
4085
4086
4087
4088
4089
4090
4091
4092
4093
4094
4095
4096
4097
Model: "sequential"
_________________________________________________________________
Layer (type)                 Output Shape              Param #   
=================================================================
dense (Dense)                (None, 16384)             1654784   
_________________________________________________________________
batch_normalization (BatchNo (None, 16384)             65536     
_________________________________________________________________
activation (Activation)      (None, 16384)             0         
_________________________________________________________________
reshape (Reshape)            (None, 8, 8, 256)         0         
_________________________________________________________________
dropout (Dropout)            (None, 8, 8, 256)         0         
_________________________________________________________________
up_sampling2d (UpSampling2D) (None, 16, 16, 256)       0         
_________________________________________________________________
conv2d (Conv2D)              (None, 16, 16, 128)       819328    
_________________________________________________________________
batch_normalization_1 (Batch (None, 16, 16, 128)       512       
_________________________________________________________________
activation_1 (Activation)    (None, 16, 16, 128)       0         
_________________________________________________________________
up_sampling2d_1 (UpSampling2 (None, 32, 32, 128)       0         
_________________________________________________________________
conv2d_1 (Conv2D)            (None, 32, 32, 128)       409728    
_________________________________________________________________
batch_normalization_2 (Batch (None, 32, 32, 128)       512       
_________________________________________________________________
activation_2 (Activation)    (None, 32, 32, 128)       0         
_________________________________________________________________
up_sampling2d_2 (UpSampling2 (None, 64, 64, 128)       0         
_________________________________________________________________
conv2d_2 (Conv2D)            (None, 64, 64, 64)        204864    
_________________________________________________________________
batch_normalization_3 (Batch (None, 64, 64, 64)        256       
_________________________________________________________________
activation_3 (Activation)    (None, 64, 64, 64)        0         
_________________________________________________________________
conv2d_3 (Conv2D)            (None, 64, 64, 32)        51232     
_________________________________________________________________
batch_normalization_4 (Batch (None, 64, 64, 32)        128       
_________________________________________________________________
activation_4 (Activation)    (None, 64, 64, 32)        0         
_________________________________________________________________
conv2d_4 (Conv2D)            (None, 64, 64, 3)         2403      
_________________________________________________________________
activation_5 (Activation)    (None, 64, 64, 3)         0         
=================================================================
Total params: 3,209,283
Trainable params: 3,175,811
Non-trainable params: 33,472
_________________________________________________________________
Model: "sequential_1"
_________________________________________________________________
Layer (type)                 Output Shape              Param #   
=================================================================
conv2d_5 (Conv2D)            (None, 32, 32, 64)        4864      
_________________________________________________________________
leaky_re_lu (LeakyReLU)      (None, 32, 32, 64)        0         
_________________________________________________________________
conv2d_6 (Conv2D)            (None, 16, 16, 128)       204928    
_________________________________________________________________
leaky_re_lu_1 (LeakyReLU)    (None, 16, 16, 128)       0         
_________________________________________________________________
dropout_1 (Dropout)          (None, 16, 16, 128)       0         
_________________________________________________________________
conv2d_7 (Conv2D)            (None, 8, 8, 256)         819456    
_________________________________________________________________
leaky_re_lu_2 (LeakyReLU)    (None, 8, 8, 256)         0         
_________________________________________________________________
dropout_2 (Dropout)          (None, 8, 8, 256)         0         
_________________________________________________________________
conv2d_8 (Conv2D)            (None, 4, 4, 512)         3277312   
_________________________________________________________________
leaky_re_lu_3 (LeakyReLU)    (None, 4, 4, 512)         0         
_________________________________________________________________
dropout_3 (Dropout)          (None, 4, 4, 512)         0         
_________________________________________________________________
flatten (Flatten)            (None, 8192)              0         
_________________________________________________________________
dense_1 (Dense)              (None, 1)                 8193      
_________________________________________________________________  0%|          | 0/128 [00:00<?, ?it/s]2019-10-24 04:56:39.261758: I tensorflow/stream_executor/platform/default/dso_loader.cc:44] Successfully opened dynamic library libcublas.so.10.0
2019-10-24 04:56:39.552538: I tensorflow/stream_executor/platform/default/dso_loader.cc:44] Successfully opened dynamic library libcudnn.so.7
…
